(20000, 512, 512, 1)
(20000, 3)
Tensor("out/BiasAdd:0", shape=(?, 1), dtype=float32)
_________________________________________________________________
Layer (type)                 Output Shape              Param #   
=================================================================
input (InputLayer)           (None, 256, 256, 4)       0         
_________________________________________________________________
Conv1_1 (Conv2D)             (None, 32, 32, 4)         1028      
_________________________________________________________________
Conv2_1 (Conv2D)             (None, 8, 8, 8)           520       
_________________________________________________________________
Conv3_1 (Conv2D)             (None, 2, 2, 8)           1032      
_________________________________________________________________
flat (Flatten)               (None, 32)                0         
_________________________________________________________________
d1 (Dense)                   (None, 1024)              33792     
_________________________________________________________________
lr1 (LeakyReLU)              (None, 1024)              0         
_________________________________________________________________
d2 (Dense)                   (None, 256)               262400    
_________________________________________________________________
lr2 (LeakyReLU)              (None, 256)               0         
_________________________________________________________________
dropout_1 (Dropout)          (None, 256)               0         
_________________________________________________________________
d3 (Dense)                   (None, 64)                16448     
_________________________________________________________________
lr3 (LeakyReLU)              (None, 64)                0         
_________________________________________________________________
dropout_2 (Dropout)          (None, 64)                0         
_________________________________________________________________
out (Dense)                  (None, 1)                 65        
=================================================================
Total params: 315,285
Trainable params: 315,285
Non-trainable params: 0
_________________________________________________________________
Epoch 1/300
2019-04-03 23:07:32.429154: I tensorflow/core/platform/cpu_feature_guard.cc:141] Your CPU supports instructions that this TensorFlow binary was not compiled to use: SSE4.1 SSE4.2 AVX AVX2 FMA
…
